…
Load dataset: CNRCI/CNRCI_dev_data_source/transcripts_type/H1.hESC/lncRNA.csv
Dataset size: 1134
10-08-2023 18:22:32 root:INFO:
Load dataset: CNRCI/CNRCI_test_data_source/transcripts_type/H1.hESC/lncRNA.csv
Dataset size: 1064
10-08-2023 18:22:32 root:INFO:Trainer informations:
10-08-2023 18:22:32 root:INFO:Model information:
Bitask_learning(
  (cnn_bilstm): CNN_BiLSTM(
    (cnn_bilstm): CNN_BiLSTM_Kernel(
      (bilstm): BiLSTM_Kernel(
        (lstm_forward): LSTM(16, 32, dropout=0.5)
        (lstm_backward): LSTM(16, 32, dropout=0.5)
        (dropout): Dropout(p=0.5, inplace=False)
      )
      (cnn): CNN_2d_Kernel(
        (conv): Conv2d(1, 16, kernel_size=(16, 12), stride=(2, 2))
        (conv2): Conv2d(1, 16, kernel_size=(16, 12), stride=(2, 2))
        (dropout): Dropout(p=0.5, inplace=False)
      )
      (cnn_rev): CNN_2d_Kernel(
        (conv): Conv2d(1, 16, kernel_size=(16, 12), stride=(2, 2))
        (conv2): Conv2d(1, 16, kernel_size=(16, 12), stride=(2, 2))
        (dropout): Dropout(p=0.5, inplace=False)
      )
      (dropout): Dropout(p=0.5, inplace=False)
    )
    (embedding): Embedding(4096, 16)
  )
  (classifier_1): Linear_Classifier(
    (fc1): Linear(in_features=64, out_features=32, bias=True)
    (fc3): Linear(in_features=32, out_features=16, bias=True)
    (fc4): Linear(in_features=16, out_features=1, bias=True)
    (dropout): Dropout(p=0.3, inplace=False)
  )
  (classifier_2): Linear_Classifier(
    (fc1): Linear(in_features=64, out_features=32, bias=True)
    (fc3): Linear(in_features=32, out_features=16, bias=True)
    (fc4): Linear(in_features=16, out_features=1, bias=True)
    (dropout): Dropout(p=0.3, inplace=False)
  )
  (dropout): Dropout(p=0.5, inplace=False)
)
10-08-2023 18:22:32 root:INFO:Optimizer information:
Adam (
Parameter Group 0
    amsgrad: False
    betas: (0.9, 0.999)
    capturable: False
    differentiable: False
    eps: 1e-08
    foreach: None
    fused: None
    lr: 0.001
    maximize: False
    weight_decay: 0
…
